AI_Interview/Voice_classification/pretrained_models/EncoderClassifier-6d849d67d0260d5a3ea6b156bb50a54b/model.ckpt (torch, 13176 bytes, 1 tensors)

0.w.weight f4 [4, 768]
00000000: 1ec9 09bd a447 2a3d 4954 58bc a26f 06bc
00000010: 648a 62b9 f7d5 d8bc 93be 82bb a6bf 973b
00000020: 893a 0f3d d058 28bd 27d5 bbbc 2cf3 eabc
00000030: 4ff8 843c 4d32 1b3d 4e32 89bc dede 2c3d
00000040: bc6c 133d 9c2c a4b9 ba91 70bc 42cc f9bc
00000050: 3537 663d d6bf 4b3d 6a5d 24bc aced 5bbd
00000060: f23c 023d 85d4 66bd 78bf 31bd 96a1 b8bb
00000070: c23b d4bb 08b2 a53c 82dc 933c c578 a4bc
00000080: 1be7 e03b 7832 6abd dd16 64bc 0132 203d
00000090: 94a9 22bd 602d cf3c 8ef9 42bd d55d a93c
000000a0: e340 10bd ff0c 773c 19a6 20bd ce82 4d3d
000000b0: 8603 903c 3bf6 0f3d 2402 f3bc 54cf 43ba
000000c0: 7b86 743c 6f61 733c 7150 f9bb 9720 493d
000000d0: dd51 7e3c 5668 e4bc b3d9 27bd ea0e 3ebd
000000e0: 45a3 a9bc cc61 243c e17b 12bd 62ce c13c
000000f0: fe0f fb3b 2c06 6fbd 002c 743c 0e12 d6bc
00000100: 7c70 e03a 7cd1 383d ea1b 3abd 54cd 353c
00000110: 7d46 48bd 73d8 f63c 6bb1 053d 2d2b d5bc
00000120: e4aa ffbc ecc5 0e3c ae0f febc 6bd8 ea3c
00000130: 0e48 5a3d 6b7c fdbc 5fff df3b 79ba 923d
00000140: 0203 193d 867d 4b3d 3a39 64bd 92e2 1fbc
00000150: 6dc6 013c 84bc 733c e9f7 8c3c 1372 7cbc
00000160: 00a3 343d 70dc 9fbc 4412 1cbd 2cbd 38bc
00000170: 865d a4bb 5a2f 4a3d 186b e73c 1c26 cabc
00000180: 9bdb f5bc 4bfd 753a 22fd a6bc c210 f83c
00000190: da64 0b3d 1829 3d3d 9055 09bc 136b 7abc
000001a0: 0e9b 0b3d 0a3c ab3c 0590 21bc 39fd c03c
000001b0: 8d4c 64bc 5e45 263d 082f 46bd 722f 36bc
000001c0: fc2a 913c 11bb 04bd 8c84 363d 157a 75bb
000001d0: 43b6 433d b839 263d 3210 8abc e53b 5dbd
000001e0: fb70 e0bb a45a 28bd e568 83bc a709 e7bc
000001f0: 5ece 8a3c b0de 423d 2b57 16bd d3fd 20bc
00000200: 21c0 8b3b 3057 15bc 072f 133b c258 bd3c
00000210: 32e9 49bd 7809 d83b 7c08 18bd 490f f43c
00000220: 95cf 313d 48ca 06bd bf1b 88bb 8377 313d
00000230: 0384 043d 3259 493c 0a9a d2bc 6c29 b8bc
00000240: 7d65 70bb 0c35 acbc d6c0 08bd 49c0 f43c
00000250: 3a75 b0bc 6e9c 5cbc 46d0 febc 0466 96bc
00000260: ff77 02bd e87b 643b a25a 513d 015c 8b3c
00000270: 2175 a2bb 7f7c 3dbd 0d13 85bd 28f7 bf3c
00000280: bfd9 4dbc 8d2d e0bb fe61 0b3c 0a6b 5c3d
00000290: d4da 0c3d 9528 863c ab99 1e3d b6bf f83c
000002a0: b0c3 29bc be39 48bd 64ae 883c 4a23 0fbd
000002b0: 802b ebbc e8d1 2fbd fa85 1f3d 1f96 193c
000002c0: 468f 08bd cf27 463d a1cb 3abd 83bb 9e3c
000002d0: c1d7 21bc a3fe 67bd e225 373d fd35 62bc
000002e0: f6de da3c 9534 d73c fe7c 363d d27f f83b
000002f0: 2ff1 733d 548b 21bd d7f5 acbc 20ea 363c
00000300: 5e08 2bbc 8561 403b 1840 263d 5044 e4bb
00000310: 3677 ebbc 6911 23bb a356 d3bb 6bd9 6abc
00000320: 3bc9 b8bc b8f0 ad3c 8871 5c3d fc17 cebc
00000330: cc55 fd3c 0600 f2bb bb73 203c a4b8 863d
00000340: 2551 c33c fa8f 0a3d a1b0 fd3c 0e49 31bd
00000350: d506 203d 7dd8 1f3c 20e2 e73c 0a36 2bbc
00000360: b1da 2c3c 1f15 60bd a2e6 2fbd fb83 84bd
00000370: 6054 893c 4411 47bd 2939 35bd c1fd a43c
00000380: f2fa a1bb ea97 103d 11fa 0a3b c748 0bbd
00000390: 9c37 8b3c 7888 e2bc 2fad 05bc bd79 c0bc
000003a0: 1fe8 78bc eae3 56bd bcf0 10bd fff5 b639
000003b0: 6a73 cc3b 43c1 4cbd 6bc0 be3c 67d3 073d
000003c0: 6e42 65bd 8b3c c7bc 9c13 a83c cdaf fa3c
000003d0: 53bd c7bc ee1b 33bd 70d2 23bb f09b 13bd
000003e0: edbf b0bc 74d0 b93c 1e54 74bd 273c 31bd
000003f0: 4942 5a3c f14e 6abd a36b 3dbd a7fc 30bd
-0.033639066 0.041572228 -0.013203689 -0.008205326 -0.00021604594 -0.026469214 -0.0039900034 0.0046310006
0.034967933 -0.041100323 -0.022928787 -0.028680407 0.016231684 0.037889767 -0.01674762 0.04220473
0.03599237 -0.00031313754 -0.014683181 -0.030492906 0.056204993 0.049743496 -0.010032037 -0.05369346
0.031796403 -0.05635502 -0.04339549 -0.005634497 -0.0064768502 0.020226493 0.018049482 -0.020077119
0.0068634874 -0.057177037 -0.013921467 0.039110187 -0.039712504 0.025290191 -0.047601275 0.020674625
-0.03521813 0.015078782 -0.039220903 0.050173573 0.017579805 0.035146933 -0.029664107 -0.0007469554
0.014924641 0.014854773 -0.0076084663 0.049103346 0.015522447 -0.027881783 -0.0409791 -0.046400942
-0.020707736 0.010033082 -0.03576267 0.023657981 0.0076618185 -0.058355495 0.014903069 -0.026131656
0.0017123367 0.045121655 -0.045436777 0.011096317 -0.048895348 0.030132508 0.032639902 -0.026021564
-0.031209417 0.00871418 -0.031013336 0.02866765 0.053291373 -0.030943116 0.0068358625 0.07164473
0.037356384 0.049680255 -0.055718638 -0.009758608 0.007920844 0.014876489 0.017208057 -0.015408057
0.04410076 -0.019514292 -0.038103357 -0.011275571 -0.0050160317 0.049361564 0.028249308 -0.024676375
-0.030011943 0.0009383752 -0.020384375 0.030281428 0.034031726 0.04618177 -0.008382216 -0.015284318
0.03408342 0.020902652 -0.009860997 0.023558246 -0.013934267 0.040593497 -0.048384696 -0.01111971
0.017720692 -0.032404963 0.04456 -0.00374568 0.04778124 0.04058239 -0.016853426 -0.054012198
-0.006849406 -0.041102067 -0.016041229 -0.028202845 0.016944107 0.047575653 -0.036704224 -0.009826141
0.004264847 -0.009115025 0.002245845 0.023113612 -0.049294658 0.0065929256 -0.037117466 0.029792445
0.043410856 -0.032907754 -0.004153698 0.043326866 0.03235246 0.012289332 -0.025708217 -0.022480689
-0.0036681585 -0.021021388 -0.033387028 0.029876845 -0.021540273 -0.01346503 -0.031105172 -0.018359192
-0.03185272 0.0034863893 0.051111825 0.017011644 -0.0049578105 -0.046261307 -0.06497774 0.023433283
-0.012564122 -0.0068413676 0.00850725 0.053813018 0.03438838 0.016376773 0.038720768 0.030364852
-0.010361597 -0.048883192 0.016684718 -0.034945764 -0.028707266 -0.04292479 0.03894613 0.009374171
-0.03333976 0.04837781 -0.045604352 0.019376522 -0.0098781 -0.056639325 0.044713862 -0.013806817
0.026717644 0.02627019 0.044552796 0.0075835967 0.059556182 -0.039439514 -0.02111332 0.011164218
-0.010439007 0.0029355001 0.04058847 -0.0069661513 -0.028743368 -0.0024882203 -0.006449537 -0.014334063
-0.022556892 0.021232948 0.05381921 -0.025157921 0.0309247 -0.0073852567 0.009793217 0.06578186
0.023842404 0.033828713 0.030968012 -0.04328256 0.039069016 0.009756205 0.028306067 -0.010449896
0.010550187 -0.054707643 -0.042944558 -0.06470486 0.016763866 -0.04860045 -0.044243965 0.02014053
-0.004943245 0.035301127 0.002120618 -0.034004953 0.01699429 -0.027652964 -0.008158966 -0.02349555
-0.015192061 -0.05246345 -0.035385832 0.00034897026 0.0062393444 -0.049988996 0.023285111 0.033160593
-0.055971555 -0.024320861 0.020517163 0.030601406 -0.024382269 -0.043727808 -0.0024997257 -0.036037385
-0.021575892 0.022682406 -0.059650533 -0.043270256 0.013321468 -0.05720419 -0.04624523 -0.043209698
